…
ne', dense=True, density=1.0, epochs=100, fp16=False, growth='momentum', iters=1, l1=0.0, l2=0.0005, log_interval=100, lr=0.1, max_threads=10, model='alexnet-b', momentum=0.9, no_cuda=False, optimizer='sgd', prune='magnitude', prune_rate=0.7, redistribution='momentum', resume=None, save_features=False, save_model='./models/model.pt', seed=17, start_epoch=1, test_batch_size=100, valid_split=0.1, verbose=True)
20:09:38: 


20:09:38: ================================================================================
20:09:38: 
Iteration start: 1/1

20:09:53: AlexNet(
  (features): Sequential(
    (0): Conv2d(3, 96, kernel_size=(11, 11), stride=(2, 2), padding=(2, 2))
    (1): BatchNorm2d(96, eps=1e-05, momentum=0.1, affine=True, track_running_stats=True)
    (2): ReLU(inplace=True)
    (3): Conv2d(96, 256, kernel_size=(5, 5), stride=(2, 2), padding=(2, 2))
    (4): BatchNorm2d(256, eps=1e-05, momentum=0.1, affine=True, track_running_stats=True)
    (5): ReLU(inplace=True)
    (6): Conv2d(256, 384, kernel_size=(3, 3), stride=(2, 2), padding=(1, 1))
    (7): BatchNorm2d(384, eps=1e-05, momentum=0.1, affine=True, track_running_stats=True)
    (8): ReLU(inplace=True)
    (9): Conv2d(384, 384, kernel_size=(3, 3), stride=(2, 2), padding=(1, 1))
    (10): BatchNorm2d(384, eps=1e-05, momentum=0.1, affine=True, track_running_stats=True)
    (11): ReLU(inplace=True)
    (12): Conv2d(384, 256, kernel_size=(3, 3), stride=(2, 2), padding=(1, 1))
    (13): BatchNorm2d(256, eps=1e-05, momentum=0.1, affine=True, track_running_stats=True)
    (14): ReLU(inplace=True)
  )
  (classifier): Sequential(
    (0): Linear(in_features=256, out_features=2048, bias=True)
    (1): BatchNorm1d(2048, eps=1e-05, momentum=0.1, affine=True, track_running_stats=True)
    (2): ReLU(inplace=True)
    (3): Linear(in_features=2048, out_features=2048, bias=True)
    (4): BatchNorm1d(2048, eps=1e-05, momentum=0.1, affine=True, track_running_stats=True)
    (5): ReLU(inplace=True)
    (6): Linear(in_features=2048, out_features=10, bias=True)
  )
)
20:09:53: ============================================================
20:09:53: alexnet-b
20:09:53: ============================================================
20:09:53: ============================================================
20:09:53: Prune mode: magnitude
20:09:53: Growth mode: momentum
20:09:53: Redistribution mode: momentum
20:09:53: ============================================================
…
