…
, decay_schedule='cosine', dense=True, density=1.0, epochs=100, fp16=False, growth='momentum', iters=1, l1=0.0, l2=0.0005, log_interval=100, lr=0.1, max_threads=10, model='MobileNet', momentum=0.9, no_cuda=False, optimizer='sgd', prune='magnitude', prune_rate=0.7, redistribution='momentum', resume=None, save_features=False, save_model='./models/model.pt', seed=17, start_epoch=1, test_batch_size=100, valid_split=0.1, verbose=True)
09:24:09: 


09:24:09: ================================================================================
09:24:09: 
Iteration start: 1/1

09:24:26: MobileNet(
  (conv1): Conv2d(3, 32, kernel_size=(3, 3), stride=(2, 2), padding=(1, 1), bias=False)
  (bn1): BatchNorm2d(32, eps=1e-05, momentum=0.1, affine=True, track_running_stats=True)
  (relu): ReLU(inplace=True)
  (dw2_1): DepthWiseBlock(
    (conv_dw): Conv2d(32, 32, kernel_size=(3, 3), stride=(1, 1), padding=(1, 1), groups=32, bias=False)
    (bn_dw): BatchNorm2d(32, eps=1e-05, momentum=0.1, affine=True, track_running_stats=True)
    (conv_sep): Conv2d(32, 64, kernel_size=(1, 1), stride=(1, 1), bias=False)
    (bn_sep): BatchNorm2d(64, eps=1e-05, momentum=0.1, affine=True, track_running_stats=True)
    (relu): ReLU(inplace=True)
  )
  (dw2_2): DepthWiseBlock(
    (conv_dw): Conv2d(64, 64, kernel_size=(3, 3), stride=(2, 2), padding=(1, 1), groups=64, bias=False)
    (bn_dw): BatchNorm2d(64, eps=1e-05, momentum=0.1, affine=True, track_running_stats=True)
    (conv_sep): Conv2d(64, 128, kernel_size=(1, 1), stride=(1, 1), bias=False)
    (bn_sep): BatchNorm2d(128, eps=1e-05, momentum=0.1, affine=True, track_running_stats=True)
    (relu): ReLU(inplace=True)
  )
  (dw3_1): DepthWiseBlock(
    (conv_dw): Conv2d(128, 128, kernel_size=(3, 3), stride=(1, 1), padding=(1, 1), groups=128, bias=False)
    (bn_dw): BatchNorm2d(128, eps=1e-05, momentum=0.1, affine=True, track_running_stats=True)
    (conv_sep): Conv2d(128, 128, kernel_size=(1, 1), stride=(1, 1), bias=False)
    (bn_sep): BatchNorm2d(128, eps=1e-05, momentum=0.1, affine=True, track_running_stats=True)
    (relu): ReLU(inplace=True)
  )
  (dw3_2): DepthWiseBlock(
    (conv_dw): Conv2d(128, 128, kernel_size=(3, 3), stride=(2, 2), padding=(1, 1), groups=128, bias=False)
    (bn_dw): BatchNorm2d(128, eps=1e-05, momentum=0.1, affine=True, track_running_stats=True)
    (conv_sep): Conv2d(128, 256, kernel_size=(1, 1), stride=(1, 1), bias=False)
    (bn_sep): BatchNorm2d(256, eps=1e-05, momentum=0.1, affine=True, track_running_stats=True)
    (relu): ReLU(inplace=True)
  )
  (dw4_1): DepthWiseBlock(
    (conv_dw): Conv2d(256, 256, kernel_size=(3, 3), stride=(1, 1), padding=(1, 1), groups=256, bias=False)
    (bn_dw): BatchNorm2d(256, eps=1e-05, momentum=0.1, affine=True, track_running_stats=True)
    (conv_sep): Conv2d(256, 256, kernel_size=(1, 1), stride=(1, 1), bias=False)
    (bn_sep): BatchNorm2d(256, eps=1e-05, momentum=0.1, affine=True, track_running_stats=True)
    (relu): ReLU(inplace=True)
  )
  (dw4_2): DepthWiseBlock(
    (conv_dw): Conv2d(256, 256, kernel_size=(3, 3), stride=(2, 2), padding=(1, 1), groups=256, bias=False)
    (bn_dw): BatchNorm2d(256, eps=1e-05, momentum=0.1, affine=True, track_running_stats=True)
    (conv_sep): Conv2d(256, 512, kernel_size=(1, 1), stride=(1, 1), bias=False)
    (bn_sep): BatchNorm2d(512, eps=1e-05, momentum=0.1, affine=True, track_running_stats=True)
    (relu): ReLU(inplace=True)
  )
  (dw5_1): DepthWiseBlock(
    (conv_dw): Conv2d(512, 512, kernel_size=(3, 3), stride=(1, 1), padding=(1, 1), groups=512, bias=False)
    (bn_dw): BatchNorm2d(512, eps=1e-05, momentum=0.1, affine=True, track_running_stats=True)
    (conv_sep): Conv2d(512, 512, kernel_size=(1, 1), stride=(1, 1), bias=False)
    (bn_sep): BatchNorm2d(512, eps=1e-05, momentum=0.1, affine=True, track_running_stats=True)
    (relu): ReLU(inplace=True)
  )
  (dw5_2): DepthWiseBlock(
    (conv_dw): Conv2d(512, 512, kernel_size=(3, 3), stride=(1, 1), padding=(1, 1), groups=512, bias=False)
    (bn_dw): BatchNorm2d(512, eps=1e-05, momentum=0.1, affine=True, track_running_stats=True)
    (conv_sep): Conv2d(512, 512, kernel_size=(1, 1), stride=(1, 1), bias=False)
    (bn_sep): BatchNorm2d(512, eps=1e-05, momentum=0.1, affine=True, track_running_stats=True)
    (relu): ReLU(inplace=True)
  )
  (dw5_3): DepthWiseBlock(
    (conv_dw): Conv2d(512, 512, kernel_size=(3, 3), stride=(1, 1), padding=(1, 1), groups=512, bias=False)
    (bn_dw): BatchNorm2d(512, eps=1e-05, momentum=0.1, affine=True, track_running_stats=True)
    (conv_sep): Conv2d(512, 512, kernel_size=(1, 1), stride=(1, 1), bias=False)
    (bn_sep): BatchNorm2d(512, eps=1e-05, momentum=0.1, affine=True, track_running_stats=True)
    (relu): ReLU(inplace=True)
  )
  (dw5_4): DepthWiseBlock(
    (conv_dw): Conv2d(512, 512, kernel_size=(3, 3), stride=(1, 1), padding=(1, 1), groups=512, bias=False)
    (bn_dw): BatchNorm2d(512, eps=1e-05, momentum=0.1, affine=True, track_running_stats=True)
    (conv_sep): Conv2d(512, 512, kernel_size=(1, 1), stride=(1, 1), bias=False)
    (bn_sep): BatchNorm2d(512, eps=1e-05, momentum=0.1, affine=True, track_running_stats=True)
    (relu): ReLU(inplace=True)
  )
  (dw5_5): DepthWiseBlock(
    (conv_dw): Conv2d(512, 512, kernel_size=(3, 3), stride=(1, 1), padding=(1, 1), groups=512, bias=False)
    (bn_dw): BatchNorm2d(512, eps=1e-05, momentum=0.1, affine=True, track_running_stats=True)
    (conv_sep): Conv2d(512, 512, kernel_size=(1, 1), stride=(1, 1), bias=False)
    (bn_sep): BatchNorm2d(512, eps=1e-05, momentum=0.1, affine=True, track_running_stats=True)
    (relu): ReLU(inplace=True)
  )
  (dw5_6): DepthWiseBlock(
    (conv_dw): Conv2d(512, 512, kernel_size=(3, 3), stride=(2, 2), padding=(1, 1), groups=512, bias=False)
    (bn_dw): BatchNorm2d(512, eps=1e-05, momentum=0.1, affine=True, track_running_stats=True)
    (conv_sep): Conv2d(512, 1024, kernel_size=(1, 1), stride=(1, 1), bias=False)
    (bn_sep): BatchNorm2d(1024, eps=1e-05, momentum=0.1, affine=True, track_running_stats=True)
    (relu): ReLU(inplace=True)
  )
  (dw6): DepthWiseBlock(
    (conv_dw): Conv2d(1024, 1024, kernel_size=(3, 3), stride=(1, 1), padding=(1, 1), groups=1024, bias=False)
    (bn_dw): BatchNorm2d(1024, eps=1e-05, momentum=0.1, affine=True, track_running_stats=True)
    (conv_sep): Conv2d(1024, 1024, kernel_size=(1, 1), stride=(1, 1), bias=False)
    (bn_sep): BatchNorm2d(1024, eps=1e-05, momentum=0.1, affine=True, track_running_stats=True)
    (relu): ReLU(inplace=True)
  )
  (avgpool): AdaptiveAvgPool2d(output_size=1)
  (fc): Linear(in_features=1024, out_features=100, bias=True)
)
09:24:26: ============================================================
09:24:26: MobileNet
09:24:26: ============================================================
09:24:26: ============================================================
09:24:26: Prune mode: magnitude
09:24:26: Growth mode: momentum
09:24:26: Redistribution mode: momentum
09:24:26: ============================================================
